…
results])]['model']\n","\n","  #for bonus question if we have time :)\n","  #performance = test_model.evaluate(fnn_test_proc, to_categorical(test_labels))\n","\n","  #print(\"==================================\")\n","  #print(\"Test Accuracy: \", performance[1])"],"execution_count":null,"outputs":[{"output_type":"stream","text":["Model: \"sequential_10\"\n","_________________________________________________________________\n","Layer (type)                 Output Shape              Param #   \n","=================================================================\n","conv2d_60 (Conv2D)           (None, 98, 98, 32)        896       \n","_________________________________________________________________\n","max_pooling2d_30 (MaxPooling (None, 49, 49, 32)        0         \n","_________________________________________________________________\n","dropout_30 (Dropout)         (None, 49, 49, 32)        0         \n","_________________________________________________________________\n","conv2d_64 (Conv2D)           (None, 47, 47, 32)        9248      \n","_________________________________________________________________\n","max_pooling2d_32 (MaxPooling (None, 24, 24, 32)        0         \n","_________________________________________________________________\n","dropout_32 (Dropout)         (None, 24, 24, 32)        0         \n","_________________________________________________________________\n","flatten_10 (Flatten)         (None, 18432)             0         \n","_________________________________________________________________\n","dense_30 (Dense)             (None, 512)               9437696   \n","_________________________________________________________________\n","dense_31 (Dense)             (None, 256)               131328    \n","_________________________________________________________________\n","dense_32 (Dense)             (None, 2)                 514       \n","=================================================================\n","Total params: 9,579,682\n","Trainable params: 9,579,682\n","Non-trainable params: 0\n","_________________________________________________________________\n","None\n","Training accuracy: 0.9529999971389771\n","Training time: 9.667906522750854\n","Hyperparameters: \n","{'activation': 'selu', 'conv_kernel_size': 3, 'conv_stride': 1, 'dropout_prob': 0.2324184487466996, 'layer_ids': (0, 2, 3, 8, 10, 11)}\n","Validation Accuracy: \n","0.7599999904632568\n","----------------------------------------------------\n","Model: \"sequential_11\"\n","_________________________________________________________________\n","Layer (type)                 Output Shape              Param #   \n","=================================================================\n","conv2d_66 (Conv2D)           (None, 100, 100, 32)      128       \n","_________________________________________________________________\n","max_pooling2d_33 (MaxPooling (None, 50, 50, 32)        0         \n","_________________________________________________________________\n","dropout_33 (Dropout)         (None, 50, 50, 32)        0         \n","_________________________________________________________________\n","conv2d_70 (Conv2D)           (None, 50, 50, 32)        1056      \n","_________________________________________________________________\n","max_pooling2d_35 (MaxPooling (None, 25, 25, 32)        0         \n","_________________________________________________________________\n","dropout_35 (Dropout)         (None, 25, 25, 32)        0         \n","_________________________________________________________________\n","flatten_11 (Flatten)         (None, 20000)             0         \n","_________________________________________________________________\n","dense_33 (Dense)             (None, 512)               10240512  \n","_________________________________________________________________\n","dense_34 (Dense)             (None, 256)               131328    \n","_________________________________________________________________\n","dense_35 (Dense)             (None, 2)                 514       \n","=================================================================\n","Total params: 10,373,538\n","Trainable params: 10,373,538\n","Non-trainable params: 0\n","_________________________________________________________________\n","None\n","Training accuracy: 0.9190000057220459\n","Training time: 9.248157262802124\n","Hyperparameters: \n","{'activation': 'tanh', 'conv_kernel_size': 1, 'conv_stride': 1, 'dropout_prob': 0.07518739948508335, 'layer_ids': (0, 2, 3, 8, 10, 11)}\n","Validation Accuracy: \n","0.7520000100135803\n","----------------------------------------------------\n","Model: \"sequential_12\"\n","_________________________________________________________________\n","Layer (type)                 Output Shape              Param #   \n","=================================================================\n","conv2d_72 (Conv2D)           (None, 48, 48, 32)        2432      \n","_________________________________________________________________\n","conv2d_73 (Conv2D)           (None, 22, 22, 32)        25632     \n","_________________________________________________________________\n","max_pooling2d_36 (MaxPooling (None, 11, 11, 32)        0         \n","_________________________________________________________________\n","dropout_36 (Dropout)         (None, 11, 11, 32)        0         \n","_________________________________________________________________\n","flatten_12 (Flatten)         (None, 3872)              0         \n","_________________________________________________________________\n","dense_36 (Dense)             (None, 512)               1982976   \n","_________________________________________________________________\n","dense_37 (Dense)             (None, 256)               131328    \n","_________________________________________________________________\n","dense_38 (Dense)             (None, 2)                 514       \n","=================================================================\n","Total params: 2,142,882\n","Trainable params: 2,142,882\n","Non-trainable params: 0\n","_________________________________________________________________\n","None\n","Training accuracy: 0.9529999971389771\n","Training time: 7.607634544372559\n","Hyperparameters: \n","{'activation': 'selu', 'conv_kernel_size': 5, 'conv_stride': 2, 'dropout_prob': 0.009337037088790917, 'layer_ids': (0, 1, 2, 3)}\n","Validation Accuracy: \n","0.8759999990463256\n","----------------------------------------------------\n","Model: \"sequential_13\"\n","_________________________________________________________________\n","Layer (type)                 Output Shape              Param #   \n","=================================================================\n","conv2d_78 (Conv2D)           (None, 98, 98, 32)        896       \n","_________________________________________________________________\n","max_pooling2d_39 (MaxPooling (None, 49, 49, 32)        0         \n","_________________________________________________________________\n","dropout_39 (Dropout)         (None, 49, 49, 32)        0         \n","_________________________________________________________________\n","flatten_13 (Flatten)         (None, 76832)             0         \n","_________________________________________________________________\n","dense_39 (Dense)             (None, 512)               39338496  \n","_________________________________________________________________\n","dense_40 (Dense)             (None, 256)               131328    \n","_________________________________________________________________\n","dense_41 (Dense)             (None, 2)                 514       \n","=================================================================\n","Total params: 39,471,234\n","Trainable params: 39,471,234\n","Non-trainable params: 0\n","_________________________________________________________________\n","None\n","Training accuracy: 0.997000002861023\n","Training time: 10.67262578010559\n","Hyperparameters: \n","{'activation': 'relu', 'conv_kernel_size': 3, 'conv_stride': 1, 'dropout_prob': 0.1765110177557947, 'layer_ids': (0, 2, 3)}\n","Validation Accuracy: \n","0.9160000085830688\n","----------------------------------------------------\n","Model: \"sequential_14\"\n","_________________________________________________________________\n","Layer (type)                 Output Shape              Param #   \n","=================================================================\n","conv2d_84 (Conv2D)           (None, 49, 49, 32)        896       \n","_________________________________________________________________\n","max_pooling2d_42 (MaxPooling (None, 25, 25, 32)        0         \n","_________________________________________________________________\n","dropout_42 (Dropout)         (None, 25, 25, 32)        0         \n","_________________________________________________________________\n","conv2d_88 (Conv2D)           (None, 12, 12, 32)        9248      \n","_________________________________________________________________\n","max_pooling2d_44 (MaxPooling (None, 6, 6, 32)          0         \n","_________________________________________________________________\n","dropout_44 (Dropout)         (None, 6, 6, 32)          0         \n","_________________________________________________________________\n","flatten_14 (Flatten)         (None, 1152)              0         \n","_________________________________________________________________\n","dense_42 (Dense)             (None, 512)               590336    \n","_________________________________________________________________\n","dense_43 (Dense)             (None, 256)               131328    \n","_________________________________________________________________\n","dense_44 (Dense)             (None, 2)                 514       \n","=================================================================\n","Total params: 732,322\n","Trainable params: 732,322\n","Non-trainable params: 0\n","_________________________________________________________________\n","None\n","Training accuracy: 0.9170000076293945\n","Training time: 7.060582160949707\n","Hyperparameters: \n","{'activation': 'tanh', 'conv_kernel_size': 3, 'conv_stride': 2, 'dropout_prob': 0.18376374981114305, 'layer_ids': (0, 2, 3, 8, 10, 11)}\n","Validation Accuracy: \n","0.8360000014305115\n","----------------------------------------------------\n","Model: \"sequential_15\"\n","_________________________________________________________________\n","Layer (type)                 Output Shape              Param #   \n","=================================================================\n","conv2d_90 (Conv2D)           (None, 49, 49, 32)        896       \n","_________________________________________________________________\n","max_pooling2d_45 (MaxPooling (None, 25, 25, 32)        0         \n","_________________________________________________________________\n","dropout_45 (Dropout)         (None, 25, 25, 32)        0         \n","_________________________________________________________________\n","flatten_15 (Flatten)         (None, 20000)             0         \n","_________________________________________________________________\n","dense_45 (Dense)             (None, 512)               10240512  \n","_________________________________________________________________\n","dense_46 (Dense)             (None, 256)               131328    \n","_________________________________________________________________\n","dense_47 (Dense)             (None, 2)                 514       \n","=================================================================\n","Total params: 10,373,250\n","Trainable params: 10,373,250\n","Non-trainable params: 0\n","_________________________________________________________________\n","None\n","Training accuracy: 0.9700000047683716\n","Training time: 7.1566455364227295\n","Hyperparameters: \n","{'activation': 'selu', 'conv_kernel_size': 3, 'conv_stride': 2, 'dropout_prob': 0.014146702058326154, 'layer_ids': (0, 2, 3)}\n","Validation Accuracy: \n","0.9120000004768372\n","----------------------------------------------------\n","Model: \"sequential_16\"\n","_________________________________________________________________\n","Layer (type)                 Output Shape              Param #   \n","=================================================================\n","conv2d_96 (Conv2D)           (None, 48, 48, 32)        2432      \n","_________________________________________________________________\n","max_pooling2d_48 (MaxPooling (None, 24, 24, 32)        0         \n","_________________________________________________________________\n","dropout_48 (Dropout)         (None, 24, 24, 32)        0         \n","_________________________________________________________________\n","conv2d_98 (Conv2D)           (None, 10, 10, 64)        51264     \n","_________________________________________________________________\n","max_pooling2d_49 (MaxPooling (None, 5, 5, 64)          0         \n","_________________________________________________________________\n","dropout_49 (Dropout)         (None, 5, 5, 64)          0         \n","_________________________________________________________________\n","flatten_16 (Flatten)         (None, 1600)              0         \n","_________________________________________________________________\n","dense_48 (Dense)             (None, 512)               819712    \n","_________________________________________________________________\n","dense_49 (Dense)             (None, 256)               131328    \n","_________________________________________________________________\n","dense_50 (Dense)             (None, 2)                 514       \n","=================================================================\n","Total params: 1,005,250\n","Trainable params: 1,005,250\n","Non-trainable params: 0\n","_________________________________________________________________\n","None\n","Training accuracy: 0.9149999976158142\n","Training time: 7.194074630737305\n","Hyperparameters: \n","{'activation': 'selu', 'conv_kernel_size': 5, 'conv_stride': 2, 'dropout_prob': 0.30944942584027896, 'layer_ids': (0, 2, 3, 4, 6, 7)}\n","Validation Accuracy: \n","0.8559999942779541\n","----------------------------------------------------\n","Model: \"sequential_17\"\n","_________________________________________________________________\n","Layer (type)                 Output Shape              Param #   \n","=================================================================\n","conv2d_102 (Conv2D)          (None, 50, 50, 32)        128       \n","_________________________________________________________________\n","max_pooling2d_51 (MaxPooling (None, 25, 25, 32)        0         \n","_________________________________________________________________\n","dropout_51 (Dropout)         (None, 25, 25, 32)        0         \n","_________________________________________________________________\n","flatten_17 (Flatten)         (None, 20000)             0         \n","_________________________________________________________________\n","dense_51 (Dense)             (None, 512)               10240512  \n","_________________________________________________________________\n","dense_52 (Dense)             (None, 256)               131328    \n","_________________________________________________________________\n","dense_53 (Dense)             (None, 2)                 514       \n","=================================================================\n","Total params: 10,372,482\n","Trainable params: 10,372,482\n","Non-trainable params: 0\n","_________________________________________________________________\n","None\n","Training accuracy: 0.9360000133514405\n","Training time: 7.153953790664673\n","Hyperparameters: \n","{'activation': 'relu', 'conv_kernel_size': 1, 'conv_stride': 2, 'dropout_prob': 0.2879081689423817, 'layer_ids': (0, 2, 3)}\n","Validation Accuracy: \n","0.7919999957084656\n","----------------------------------------------------\n","Model: \"sequential_18\"\n","_________________________________________________________________\n","Layer (type)                 Output Shape              Param #   \n","=================================================================\n","conv2d_108 (Conv2D)          (None, 100, 100, 32)      128       \n","_________________________________________________________________\n","max_pooling2d_54 (MaxPooling (None, 50, 50, 32)        0         \n","_________________________________________________________________\n","dropout_54 (Dropout)         (None, 50, 50, 32)        0         \n","_________________________________________________________________\n","conv2d_112 (Conv2D)          (None, 50, 50, 32)        1056      \n","_________________________________________________________________\n","max_pooling2d_56 (MaxPooling (None, 25, 25, 32)        0         \n","_________________________________________________________________\n","dropout_56 (Dropout)         (None, 25, 25, 32)        0         \n","_________________________________________________________________\n","flatten_18 (Flatten)         (None, 20000)             0         \n","_________________________________________________________________\n","dense_54 (Dense)             (None, 512)               10240512  \n","_________________________________________________________________\n","dense_55 (Dense)             (None, 256)               131328    \n","_________________________________________________________________\n","dense_56 (Dense)             (None, 2)                 514       \n","=================================================================\n","Total params: 10,373,538\n","Trainable params: 10,373,538\n","Non-trainable params: 0\n","_________________________________________________________________\n","None\n","Training accuracy: 0.9000000119209289\n","Training time: 9.079967498779297\n","Hyperparameters: \n","{'activation': 'tanh', 'conv_kernel_size': 1, 'conv_stride': 1, 'dropout_prob': 0.15107252028427826, 'layer_ids': (0, 2, 3, 8, 10, 11)}\n","Validation Accuracy: \n","0.7120000123977661\n","----------------------------------------------------\n","Model: \"sequential_19\"\n","_________________________________________________________________\n","Layer (type)                 Output Shape              Param #   \n","=================================================================\n","conv2d_114 (Conv2D)          (None, 96, 96, 32)        2432      \n","_________________________________________________________________\n","max_pooling2d_57 (MaxPooling (None, 48, 48, 32)        0         \n","_________________________________________________________________\n","dropout_57 (Dropout)         (None, 48, 48, 32)        0         \n","_________________________________________________________________\n","conv2d_118 (Conv2D)          (None, 44, 44, 32)        25632     \n","_________________________________________________________________\n","max_pooling2d_59 (MaxPooling (None, 22, 22, 32)        0         \n","_________________________________________________________________\n","dropout_59 (Dropout)         (None, 22, 22, 32)        0         \n","_________________________________________________________________\n","flatten_19 (Flatten)         (None, 15488)             0         \n","_________________________________________________________________\n","dense_57 (Dense)             (None, 512)               7930368   \n","_________________________________________________________________\n","dense_58 (Dense)             (None, 256)               131328    \n","_________________________________________________________________\n","dense_59 (Dense)             (None, 2)                 514       \n","=================================================================\n","Total params: 8,090,274\n","Trainable params: 8,090,274\n","Non-trainable params: 0\n","_________________________________________________________________\n","None\n","Training accuracy: 0.931000006198883\n","Training time: 9.781844854354858\n","Hyperparameters: \n","{'activation': 'tanh', 'conv_kernel_size': 5, 'conv
…
