…
val,)\n","performance = cnn_model.evaluate(val_images_3d, to_categorical(labels_val))\n","\n","print(f\"The acc of validation set is :{performance[1]}\")\n","end = time.time()\n","elipsed2 = end - start\n","print(f\"The running time is {round(elapsed2,1)} sec\")\n"],"execution_count":53,"outputs":[{"output_type":"stream","text":["Model: \"sequential_10\"\n","_________________________________________________________________\n","Layer (type)                 Output Shape              Param #   \n","=================================================================\n","conv2d_17 (Conv2D)           (None, 47, 47, 64)        320       \n","_________________________________________________________________\n","max_pooling2d_14 (MaxPooling (None, 23, 23, 64)        0         \n","_________________________________________________________________\n","conv2d_18 (Conv2D)           (None, 22, 22, 64)        16448     \n","_________________________________________________________________\n","dropout_11 (Dropout)         (None, 22, 22, 64)        0         \n","_________________________________________________________________\n","conv2d_19 (Conv2D)           (None, 21, 21, 64)        16448     \n","_________________________________________________________________\n","dropout_12 (Dropout)         (None, 21, 21, 64)        0         \n","_________________________________________________________________\n","max_pooling2d_15 (MaxPooling (None, 10, 10, 64)        0         \n","_________________________________________________________________\n","flatten_7 (Flatten)          (None, 6400)              0         \n","_________________________________________________________________\n","dense_17 (Dense)             (None, 7)                 44807     \n","=================================================================\n","Total params: 78,023\n","Trainable params: 78,023\n","Non-trainable params: 0\n","_________________________________________________________________\n","None\n","Epoch 1/20\n","58/58 [==============================] - 7s 118ms/step - loss: 8.4865 - accuracy: 0.1936 - val_loss: 1.8561 - val_accuracy: 0.2184\n","Epoch 2/2
…
a=val,)\n","performance = cnn_model.evaluate(val_images_3d, to_categorical(labels_val))\n","\n","print(f\"The acc of validation set is :{performance[1]}\")\n","end = time.time()\n","elipsed2 = end - start\n","print(f\"The running time is {round(elipsed2,1)} sec\")"],"execution_count":69,"outputs":[{"output_type":"stream","text":["Model: \"sequential_14\"\n","_________________________________________________________________\n","Layer (type)                 Output Shape              Param #   \n","=================================================================\n","conv2d_32 (Conv2D)           (None, 47, 47, 32)        160       \n","_________________________________________________________________\n","max_pooling2d_25 (MaxPooling (None, 23, 23, 32)        0         \n","_________________________________________________________________\n","conv2d_33 (Conv2D)           (None, 22, 22, 32)        4128      \n","_________________________________________________________________\n","dropout_22 (Dropout)         (None, 22, 22, 32)        0         \n","_________________________________________________________________\n","conv2d_34 (Conv2D)           (None, 21, 21, 64)        8256      \n","_________________________________________________________________\n","dropout_23 (Dropout)         (None, 21, 21, 64)        0         \n","_________________________________________________________________\n","max_pooling2d_26 (MaxPooling (None, 10, 10, 64)        0         \n","_________________________________________________________________\n","conv2d_35 (Conv2D)           (None, 9, 9, 64)          16448     \n","_________________________________________________________________\n","dropout_24 (Dropout)         (None, 9, 9, 64)          0         \n","_________________________________________________________________\n","max_pooling2d_27 (MaxPooling (None, 4, 4, 64)          0         \n","_________________________________________________________________\n","flatten_11 (Flatten)         (None, 1024)              0         \n","_________________________________________________________________\n","dense_21 (Dense)             (None, 7)                 7175      \n","=================================================================\n","Total params: 36,167\n","Trainable params: 36,167\n","Non-trainable params: 0\n","_________________________________________________________________\n","None\n","Epoch 1/10\n","144/144 [==============================] - 5s 32ms/step - loss: 3.2152 - accuracy: 0.2281 - val_loss: 1.7845 - val_accuracy: 0.2784\n","Epoch 2
…
ta=val,)\n","performance = cnn_model.evaluate(val_images_3d, to_categorical(labels_val))\n","\n","print(f\"The acc of validation set is :{performance[1]}\")\n","end = time.time()\n","elipsed2 = end - start\n","print(f\"The running time is {round(elipsed2,1)} sec\")"],"execution_count":17,"outputs":[{"output_type":"stream","text":["Model: \"sequential_1\"\n","_________________________________________________________________\n","Layer (type)                 Output Shape              Param #   \n","=================================================================\n","conv2d (Conv2D)              (None, 46, 46, 64)        640       \n","_________________________________________________________________\n","max_pooling2d (MaxPooling2D) (None, 23, 23, 64)        0         \n","_________________________________________________________________\n","conv2d_1 (Conv2D)            (None, 21, 21, 64)        36928     \n","_________________________________________________________________\n","dropout (Dropout)            (None, 21, 21, 64)        0         \n","_________________________________________________________________\n","conv2d_2 (Conv2D)            (None, 19, 19, 64)        36928     \n","_________________________________________________________________\n","dropout_1 (Dropout)          (None, 19, 19, 64)        0         \n","_________________________________________________________________\n","max_pooling2d_1 (MaxPooling2 (None, 9, 9, 64)          0         \n","_________________________________________________________________\n","flatten (Flatten)            (None, 5184)              0         \n","_________________________________________________________________\n","dense_1 (Dense)              (None, 576)               2986560   \n","_________________________________________________________________\n","dense_2 (Dense)              (None, 7)                 4039      \n","=================================================================\n","Total params: 3,065,095\n","Trainable params: 3,065,095\n","Non-trainable params: 0\n","_________________________________________________________________\n","None\n","Epoch 1/10\n","144/144 [==============================] - 4s 30ms/step - loss: 8.2038 - accuracy: 0.2328 - val_loss: 1.8933 - val_accuracy: 0.2530\n","E
…
10000,28,28,1)\n","\n","model2.fit(train_images_3d2, to_categorical(train_labels), epochs=10, batch_size=256,)\n","performance = model2.evaluate(test_images_3d2, to_categorical(test_labels))\n","\n","print(\"Accuracy on Test samples: {0}\".format(performance[1]))\n"],"execution_count":58,"outputs":[{"output_type":"stream","text":["Model: \"sequential_4\"\n","_________________________________________________________________\n","Layer (type)                 Output Shape              Param #   \n","=================================================================\n","conv2d_11 (Conv2D)           (None, 26, 26, 32)        320       \n","_________________________________________________________________\n","conv2d_12 (Conv2D)           (None, 24, 24, 32)        9248      \n","_________________________________________________________________\n","max_pooling2d_6 (MaxPooling2 (None, 12, 12, 32)        0         \n","_________________________________________________________________\n","conv2d_13 (Conv2D)           (None, 10, 10, 64)        18496     \n","_________________________________________________________________\n","conv2d_14 (Conv2D)           (None, 8, 8, 64)          36928     \n","_________________________________________________________________\n","max_pooling2d_7 (MaxPooling2 (None, 4, 4, 64)          0         \n","_________________________________________________________________\n","flatten_3 (Flatten)          (None, 1024)              0         \n","_________________________________________________________________\n","dense_12 (Dense)             (None, 512)               524800    \n","_________________________________________________________________\n","dense_13 (Dense)             (None, 10)                5130      \n","=================================================================\n","Total params: 594,922\n","Trainable params: 594,922\n","Non-trainable params: 0\n","_________________________________________________________________\n","None\n","Epoch 1/10\n","235/235 [==============================] - 3s 11ms/step - loss: 2.6015 - accuracy: 0.4120\n","Epoch 2/10\n","235/235 [=======================
…
AAAAI/AAAAAAAAA9Y/SV0jzmWT_-E/s64/photo.jpg","userId":"00843738786401489735"}},"outputId":"42c8f053-6629-41cc-c0e4-8b3203dec35c","colab":{"base_uri":"https://localhost:8080/","height":408}},"source":["model2.pop()\n","model2.pop()\n","print(model2.summary())\n","\n"],"execution_count":59,"outputs":[{"output_type":"stream","text":["Model: \"sequential_4\"\n","_________________________________________________________________\n","Layer (type)                 Output Shape              Param #   \n","=================================================================\n","conv2d_11 (Conv2D)           (None, 26, 26, 32)        320       \n","_________________________________________________________________\n","conv2d_12 (Conv2D)           (None, 24, 24, 32)        9248      \n","_________________________________________________________________\n","max_pooling2d_6 (MaxPooling2 (None, 12, 12, 32)        0         \n","_________________________________________________________________\n","conv2d_13 (Conv2D)           (None, 10, 10, 64)        18496     \n","_________________________________________________________________\n","conv2d_14 (Conv2D)           (None, 8, 8, 64)          36928     \n","_________________________________________________________________\n","max_pooling2d_7 (MaxPooling2 (None, 4, 4, 64)          0         \n","_________________________________________________________________\n","flatten_3 (Flatten)          (None, 1024)              0         \n","=================================================================\n","Total params: 64,992\n","Trainable params: 64,992\n","Non-trainable params: 0\n","_________________________________________________________________\n","None\n"],"name":"stdout"}]},{"cell_type":"code","metadata":{"id":"RrQJ2RD2Eq4z","executionInfo":{"status":"ok","timestamp":1603329028246,"user_tz":300,"elapsed":396
…
AAAAAAAA9Y/SV0jzmWT_-E/s64/photo.jpg","userId":"00843738786401489735"}},"outputId":"4536e44a-96d6-40ae-f69e-e5d511ccbd13","colab":{"base_uri":"https://localhost:8080/","height":442}},"source":["model2.add(Dense(7,activation='softmax'))\n","print(model2.summary())\n"],"execution_count":60,"outputs":[{"output_type":"stream","text":["Model: \"sequential_4\"\n","_________________________________________________________________\n","Layer (type)                 Output Shape              Param #   \n","=================================================================\n","conv2d_11 (Conv2D)           (None, 26, 26, 32)        320       \n","_________________________________________________________________\n","conv2d_12 (Conv2D)           (None, 24, 24, 32)        9248      \n","_________________________________________________________________\n","max_pooling2d_6 (MaxPooling2 (None, 12, 12, 32)        0         \n","_________________________________________________________________\n","conv2d_13 (Conv2D)           (None, 10, 10, 64)        18496     \n","_________________________________________________________________\n","conv2d_14 (Conv2D)           (None, 8, 8, 64)          36928     \n","_________________________________________________________________\n","max_pooling2d_7 (MaxPooling2 (None, 4, 4, 64)          0         \n","_________________________________________________________________\n","flatten_3 (Flatten)          (None, 1024)              0         \n","_________________________________________________________________\n","dense_14 (Dense)             (None, 7)                 7175      \n","=================================================================\n","Total params: 72,167\n","Trainable params: 72,167\n","Non-trainable params: 0\n","_________________________________________________________________\n","None\n"],"name":"stdout"}]},{"cell_type":"code","metadata":{"id":"yiRtRrKeJPsk","executionInfo":{"status":"ok","timestamp":1603329035655,"user_tz":300,"elapsed":893,"u
…
71f5af-4f79-465c-9641-fb95dd054785","colab":{"base_uri":"https://localhost:8080/","height":476}},"source":["model2.pop()\n","model2.pop()\n","model2.add(Dense(2403//4,activation='softmax'))\n","model2.add(Dense(7,activation='softmax'))\n","print(model2.summary())\n"],"execution_count":66,"outputs":[{"output_type":"stream","text":["Model: \"sequential_5\"\n","_________________________________________________________________\n","Layer (type)                 Output Shape              Param #   \n","=================================================================\n","conv2d_15 (Conv2D)           (None, 26, 26, 32)        320       \n","_________________________________________________________________\n","conv2d_16 (Conv2D)           (None, 24, 24, 32)        9248      \n","_________________________________________________________________\n","max_pooling2d_8 (MaxPooling2 (None, 12, 12, 32)        0         \n","_________________________________________________________________\n","conv2d_17 (Conv2D)           (None, 10, 10, 64)        18496     \n","_________________________________________________________________\n","conv2d_18 (Conv2D)           (None, 8, 8, 64)          36928     \n","_________________________________________________________________\n","max_pooling2d_9 (MaxPooling2 (None, 4, 4, 64)          0         \n","_________________________________________________________________\n","flatten_4 (Flatten)          (None, 1024)              0         \n","_________________________________________________________________\n","dense_17 (Dense)             (None, 600)               615000    \n","_________________________________________________________________\n","dense_18 (Dense)             (None, 7)                 4207      \n","=================================================================\n","Total params: 684,199\n","Trainable params: 684,199\n","Non-trainable params: 0\n","_________________________________________________________________\n","None\n"],"name":"stdout"}]},{"cell_type":"code","metadata":{"id":"sMtgxVNoyfzL","executionInfo":{"status":"ok","timestamp":1603329311054,"user_tz":300,"elapsed":2888
…
